chrononet/Chrononet.pth (torch, 552195 bytes, 36 tensors)

weight f4 [32, 14, 2]
000000 6a ce 1e 3e 2b 9e e8 3d b3 ae 24 bd 5e 42 1f 3c
       0.15508428 0.11358293 -0.04020567 0.009720413
000010 ee 8f 25 be d4 95 f2 3c 5d 42 04 bd 0c 54 16 be
       -0.16168186 0.02961246 -0.03228985 -0.14680499
000020 91 f3 f6 bc 55 b2 1d be 20 dc 1e 3c eb 44 4f bc
       -0.030145438 -0.1540006 0.009696037 -0.012650709
000030 76 df ed 3d f1 ad 11 bc 22 99 1a be 50 90 f3 3d
       0.116148874 -0.0088915685 -0.15097478 0.1189276
000040 86 5e b6 3d 8f 15 1e be 8a 29 2c 3e b2 2a 34 bd
       0.08904748 -0.15437911 0.16812721 -0.04398603
000050 3d 5c 2f 3e 69 91 ae bd 93 e9 18 3e 4f 37 17 bd
       0.1712503 -0.085238285 0.14932851 -0.03691798
000060 bc f5 2d 3e f6 f0 20 bd e2 d6 1f 3e b9 77 ea 3d
       0.16988271 -0.0392923 0.15609315 0.114486165
000070 c4 4b 01 3e cb 4e 1d 3e c2 dd 1c be b2 e4 e8 3d
       0.12626559 0.15362088 -0.15318969 0.11371745
000080 7f 27 c5 bd ec 28 1c 3b 1e fd 20 3e 0c c5 15 3d
       -0.09626674 0.0023828102 0.15721557 0.03656487
000090 29 8a 62 3d 9a eb cd bc 71 74 28 be 78 6c 1f 3e
       0.05530754 -0.025136758 -0.16450669 0.15568721
0000a0 3a 45 32 bc cc ee 82 bd 8b f3 2f 3e 27 83 c4 bd
       -0.010880763 -0.06393203 0.17182748 -0.09595328
0000b0 74 c2 19 3e a8 db dd 3d cc b8 21 3e e9 72 26 bd
       0.15015584 0.10832912 0.1579315 -0.04063693
0000c0 08 59 96 3d a0 b2 17 3e 33 d4 13 be ed 29 0d 3e
       0.073412 0.14814234 -0.14436416 0.13785525
0000d0 88 45 43 3d 93 6f ed bd fb 73 12 be c3 9d 19 be
       0.047673732 -0.11593547 -0.14302056 -0.15001588
0000e0 08 71 87 3d 92 6f bf 3d be 50 be 3d 08 6c 1c be
       0.06613356 0.09347452 0.09292744 -0.15275586
0000f0 09 bc 3c be 62 a1 ed 3a f4 6d 51 3d b6 44 f6 3c
       -0.18431105 0.0018129761 0.05113025 0.03006206
000100 a9 4a d6 bd 33 b5 65 bd cd d3 d5 3d 07 6a 25 bd
       -0.10463459 -0.05608101 0.104407884 -0.04038432
000110 40 9e df bd fd a9 c5 3d 74 67 0a 3e 1c 2a e2 bd
       -0.10918856 0.09651563 0.13516027 -0.11043188
000120 6b 45 f0 bc f4 11 c1 bd 4c 7e 9c 3c 08 e1 f6 bd
       -0.029329976 -0.094272524 0.019103192 -0.1205464
000130 ec 9f 12 3e 5e a4 ae bd 19 15 e8 3d f2 cf 37 3e
       0.14318818 -0.08527444 0.11332149 0.17950419
000140 d4 b9 49 3d 5c 73 89 bc e0 6a 29 3e b1 dc 8b bd
       0.049249485 -0.01677864 0.16544676 -0.06829203
000150 3d c6 84 bd 70 12 cb bd ed 43 39 3e de 1a 9c bd
       -0.064831235 -0.09915626 0.18092318 -0.07622312
000160 c0 d5 e0 3c d3 26 bf 3d b5 e1 14 3e 34 91 81 3d
       0.027445674 0.09333577 0.14539225 0.063265234
000170 60 df b5 bd 02 73 53 3d ef bc b8 bd fc 1e 6a bd
       -0.08880496 0.051623352 -0.09020411 -0.057158455
000180 99 e6 7d bd 12 a7 b2 3d a8 cc e9 3d d4 4d 6c 3d
       -0.061987493 0.087232724 0.11415988 0.05769141
000190 24 74 4d 3d 60 8f a7 3c c7 6d 2c be 1d b7 c2 3d
       0.05015959 0.020454109 -0.16838752 0.09507582
0001a0 23 14 10 3d d4 75 25 be e6 59 05 3e 3a 16 8a 3d
       0.035175454 -0.16158229 0.13022575 0.06742521
0001b0 a6 b5 c0 3d 5a 3b ab 3d 32 2f 1a be 31 cf 8d 3d
       0.09409647 0.0836093 -0.15057066 0.06924284
0001c0 cf 85 b8 3b e9 b8 f7 bc 49 95 74 3d ab cc e3 3d
       0.0056311856 -0.03023954 0.059712682 0.11123022
0001d0 f6 36 76 3d 65 d1 22 3e 25 16 90 bd 6a 63 a5 bd
       0.06011101 0.1590019 -0.07035474 -0.08075602
0001e0 6b 98 11 3e a5 73 ca bd a0 e8 ab bc 7e 8e bc 3d
       0.14218299 -0.09885339 -0.020984948 0.09206866
0001f0 7e 26 bb 3d c7 ca 22 3e 9e 9c b3 bd 5c e9 72 3c
       0.09138201 0.15897666 -0.08770107 0.014826145
000200 91 b7 3f be 2b 6e f1 bc 79 c5 9f bd 38 90 ea bd
       -0.18722369 -0.029471477 -0.07801337 -0.11453289
000210 d2 0e 93 3d 8a 8f 90 3d 64 8c 37 3e 63 1b 85 3c
       0.07180561 0.07058628 0.17924649 0.01624841
000220 d9 a6 3d 3e 92 ab 95 bd 22 4e e7 3c 46 51 da bc
       0.18520679 -0.07308115 0.028235499 -0.026650082
000230 b7 88 22 3e 0b dd 39 3e 49 98 54 3d 96 53 92 bd
       0.15872465 0.18150727 0.051903043 -0.07144849
000240 8d f9 2c 3e 7c 4c 00 be 1e 7d 33 be 03 d3 d9 bd
       0.16892071 -0.12529176 -0.17528197 -0.106359504
000250 49 0d 16 be 38 26 31 3e c5 bd 21 be 1b 95 cc 3d
       -0.14653505 0.17299736 -0.15795048 0.09989377
000260 6a 24 cc 3d 9d 90 84 bd b7 b1 bd 3d d1 00 f8 3d
       0.09967883 -0.06472895 0.09262412 0.12109531
000270 11 4c e1 3d ee f4 a8 bd 88 c4 f1 3d 16 7b 3a 3c
       0.11000837 -0.08249842 0.118050635 0.011381885
000280 45 21 af 3d 0d ef 49 3c 1b c5 0a be 6b 26 a0 bd
       0.085512675 0.012325061 -0.13551752 -0.07819828
000290 37 66 3d be ec dc fa bd a1 f0 03 be bb 82 d1 3d
       -0.18496023 -0.12249169 -0.12884761 0.10230013
0002a0 69 f1 8f 3c 81 19 0d be cd 5b ed bd 80 4f b3 3d
       0.017571168 -0.1377926 -0.11589775 0.08755398
0002b0 16 7e 28 3d 9a e8 de 3c 78 9f 0c be 41 aa 22 3e
       0.04113587 0.027210522 -0.13732708 0.15885259
0002c0 a0 57 88 3d 88 af 52 bc cd 3f 22 3e 12 53 3a 3e
       0.06657338 -0.012859233 0.1584465 0.18195751
0002d0 58 2e 1f be 47 1a 09 3d 91 b3 1d 3e a6 b8 ce bd
       -0.15545022 0.033472326 0.1540053 -0.10093813
0002e0 78 c3 ff 3d 23 de c8 3d 63 cd b8 bc 9d 6f 08 3e
       0.124884546 0.09807994 -0.022558874 0.13323827
0002f0 69 11 d9 bd 12 dd a6 bc 94 d0 4f bd 97 88 e8 bd
       -0.10599024 -0.020369086 -0.050736025 -0.113541774
000300 0c d1 95 bc 52 97 2e be 1a 7c 48 3d c4 3e 01 be
       -0.018288158 -0.17049912 0.048946477 -0.126216
000310 53 ba ad 3d 5e 3f 4a bc 40 27 40 3e eb 97 ac bd
       0.08482804 -0.0123442095 0.18764973 -0.084274136
000320 db 73 3e 3e 39 f0 1d 3e ad 10 41 be 2e 9e 0e 3e
       0.18598883 0.15423669 -0.18854018 0.13927528
000330 85 6e de bd 85 8f d1 3a 69 c1 b7 3c a3 50 b2 3d
       -0.10860924 0.0015988207 0.022431092 0.087067865
000340 6c 2d 10 be fb 6d fb 3d 3f 8c 25 3e 1f bf f9 bd
       -0.14079827 0.122768365 0.16166781 -0.121946566
000350 86 b9 4c bd 95 27 6e 3d 60 8d 24 3e b8 0c b4 3d
       -0.049981616 0.058143217 0.16069555 0.087914884
000360 f8 e5 d2 3d a1 4c 9a bd ac aa a1 bd 7d 2c 82 3d
       0.10297769 -0.07534147 -0.07893881 0.06356142
000370 26 81 fe bd 16 15 f9 3d 00 68 46 bc 9f 0a 1c be
       -0.12426977 0.12162225 -0.0121097565 -0.15238427
000380 3a 2b a1 bd b0 d7 c6 bd d2 43 29 3e ea a6 98 3d
       -0.07869573 -0.09709108 0.16529778 0.07453711
000390 b7 14 8d 3d 89 ce bf bd 1c 52 05 be b0 7d ee 3d
       0.06888717 -0.09365565 -0.13019603 0.11645067
0003a0 3e 04 f9 ba 16 4b dc 3d c3 e1 a7 3d c0 ab 41 3d
       -0.0018998457 0.10756509 0.081973575 0.047282934
0003b0 ef 09 3b 3d 78 c9 72 3d c5 13 36 3e f7 f7 1d 3e
       0.04566377 0.059274167 0.17780979 0.15426622
0003c0 22 de 8e 3d 65 48 26 be 04 42 fe 3b ec a3 13 be
       0.06975962 -0.16238554 0.0077593345 -0.14418
0003d0 35 31 cc bd 05 25 32 3e b9 40 a7 bd 65 93 58 bd
       -0.09970323 0.17396934 -0.08166642 -0.05287494
0003e0 b6 55 1b bd 20 fe ff 3d c1 e2 18 3e a8 52 30 be
       -0.037923537 0.12499642 0.1493025 -0.17219031
0003f0 85 ed 1e be 8a 79 04 be ca 19 1a 3e 96 59 92 bc
       -0.15520294 -0.12936988 0.150489 -0.017864984

bias f4 [32]
000000 b5 83 17 be cf 14 a5 3d 5f 13 dc bd fe 95 a3 bc
       -0.14796336 0.080606095 -0.10745882 -0.019968983
000010 65 31 34 be 8e 1f 83 bd 2a a7 30 bc a3 5c c6 3d
       -0.17596968 -0.06402503 -0.0107820425 0.09685638
000020 bb 9b 08 3d 5b a7 b4 3d f6 f9 8f 3d 26 9f f0 bd
       0.03335164 0.08820983 0.07030098 -0.11749105
000030 a8 8d 78 3d 4c 51 24 3e ec bb f3 bd 39 30 05 bd
       0.06068197 0.16046637 -0.11901078 -0.03251669
000040 25 4a 1d be b1 52 56 3d 81 c4 29 bd 6b 08 1c bb
       -0.15360315 0.052324954 -0.041447166 -0.0023808728
000050 80 71 19 3e 3c ea 03 be 36 0d 05 3d 21 e2 c8 3c
       0.14984703 -0.12882322 0.032483302 0.02452189
000060 76 b6 17 3e 00 ca e2 bd fb b8 e1 3d 3d 7f 3e 3e
       0.14815697 -0.11073685 0.1102161 0.18603225
000070 2f ab 0f 3e e9 cb 19 3e 3d 19 90 bc fb 97 f2 bd
       0.14030145 0.15019192 -0.01759016 -0.11845394

weight f4 [32, 14, 4]
000000 e0 0e 92 bd 13 cb 8f bd 88 5e eb 3d 74 8d f7 bc
       -0.071317434 -0.07021155 0.1149264 -0.030218817
000010 e6 5a 88 3d 06 f8 a8 3d 0f 01 38 bc 40 a8 a7 3c
       0.066579625 0.08250432 -0.011230721 0.02046597
000020 0e 11 1e bd e0 35 1a bd 66 29 7e bd 8c 21 26 bb
       -0.038590483 -0.037649035 -0.0620512 -0.0025349585
000030 24 3c 49 3d f8 52 64 bc 70 1e b0 bd cb 23 88 bd
       0.04912962 -0.013935797 -0.085995555 -0.06647452
000040 5c 7f 8d 3d 1c 6e b4 3d 6b 6d 8f bd fd dc 9c bd
       0.069090575 0.08810064 -0.07003292 -0.07659338
000050 88 6e 1e 3d 7b 4e 02 bc ce 9e e7 bd 8f c0 97 3a
       0.03867963 -0.0079532815 -0.113095865 0.0011577773
000060 e7 76 42 3d f3 a4 e7 bd 60 29 06 3d 6f d6 6c 3d
       0.047476675 -0.113107584 0.032754302 0.057821687
000070 3d 90 ed bd 79 8a a3 3a 07 06 e9 3d bf 2d 1c 3d
       -0.11599777 0.0012477181 0.11378103 0.038129564
000080 ce 25 da 3c 0c f5 eb 3c 09 cc ac 3d 21 df c7 bc
       0.026629355 0.02880337 0.08437354 -0.024398388
000090 e4 20 13 3d 71 c8 45 3c 8e ab 09 bd 9f bb 5f bd
       0.03592004 0.012071715 -0.033610873 -0.05462229
0000a0 c3 94 06 bd 31 fc b4 3d 68 89 7c bd 06 13 5e bd
       -0.032856714 0.08837164 -0.06165448 -0.05421736
0000b0 db c0 92 3d 0b 4e b1 ba ff 51 fd bd 4e 49 01 3e
       0.071656905 -0.0013527287 -0.12369155 0.1262562
0000c0 b6 60 c5 3d c6 5e cb 3d dc 77 fe bc 7e 74 a4 3c
       0.09637587 0.09930186 -0.031063013 0.020075079
0000d0 8a a3 d3 3d 97 6d ce bd 92 d5 dd bc a6 1c 42 3d
       0.10333927 -0.10079496 -0.027079377 0.047390603
0000e0 14 e6 f9 bd 00 26 c4 3d 4c ab fb 3d fd b0 90 3d
       -0.12202087 0.095775604 0.12288532 0.07065008
0000f0 e0 a0 86 bd 94 c6 54 3d 8c 00 ab 3d a9 e9 00 be
       -0.06573653 0.05194719 0.08349714 -0.12589134
000100 df 52 f1 bc 35 1b 5d bd 5b b1 8a bd 37 58 9e 3d
       -0.029458461 -0.053981025 -0.06772109 0.077316694
000110 0c 77 06 be c1 f1 a0 3d 0f ab df bd db 9b 6d bb
       -0.1313135 0.07858611 -0.10921299 -0.0036256227
000120 a9 78 c1 bd 47 c3 c7 bd 4a c3 c0 bd 0c 70 f5 39
       -0.09446842 -0.09754043 -0.094122484 0.00046813523
000130 77 a4 bd 3d 11 a5 24 3d 9a 26 9e 3b 8d 8c 97 3d
       0.09259885 0.040196482 0.004826379 0.07399855
000140 6f 98 07 3e f7 a8 a0 bc fe 29 d8 3d 3d 08 53 3d
       0.13241743 -0.019611819 0.105548844 0.05152153
000150 bb 86 d4 3d 9d 97 e2 3d 39 8b a8 3c c2 b6 05 3e
       0.1037726 0.11064074 0.020574199 0.13057998
000160 25 fb 65 3d 7e db 05 3e 78 f8 f0 3d 45 82 85 3c
       0.056147713 0.13072011 0.11766142 0.016297469
000170 60 75 94 3d 00 9f 6e 3d 3d 3a 04 bc f2 8a 8d 3d
       0.0724895 0.058257103 -0.008070526 0.06911267
000180 f3 3f f5 bd 28 20 c2 3d 77 b8 08 bc 04 c1 3c 3d
       -0.11975088 0.094787896 -0.008344761 0.04608251
000190 01 48 04 3e b4 9c 65 bc 03 74 f4 bd 92 ed 81 bd
       0.12918092 -0.014014412 -0.1193619 -0.06344141
0001a0 10 12 da bd c3 19 c5 bd e9 b3 e2 3b e6 93 00 be
       -0.106479764 -0.09624054 0.0069184196 -0.12556419
0001b0 29 1c 97 3d b7 35 bc bd 5d 40 fc 3d 2e 3b e1 bd
       0.07378418 -0.09189933 0.12316964 -0.10997616
0001c0 24 83 58 3d 85 40 c1 bd b4 c6 d9 3d ea 7e a3 3c
       0.05285944 -0.09436134 0.10633603 0.019957978
0001d0 c5 a4 eb 3c ee 38 bc bd 75 9d 1a 3c e9 2e e0 bd
       0.028765092 -0.09190546 0.009436955 -0.109464474
0001e0 09 9e 01 3d 06 41 b4 bd 27 87 99 3d 3a 91 42 3d
       0.031644855 -0.08801465 0.074964814 0.04750178
0001f0 51 10 6e bd a1 88 c4 bc b5 13 dd bc 89 da 63 bd
       -0.05812103 -0.023990931 -0.026986936 -0.055628333
000200 e5 66 23 3d d4 25 85 3b cf d7 39 bd d6 95 07 be
       0.03989305 0.0040633474 -0.045371827 -0.13240752
000210 7d 96 a2 3d 9d f4 0d bd b2 3a e4 3d f5 ed 39 bd
       0.079388596 -0.03465711 0.11144008 -0.04539295
000220 b2 7c c1 bc 28 96 55 bd 46 85 16 bd b9 6f 03 3d
       -0.02361903 -0.052145153 -0.036748193 0.03208897
000230 3a 3b f7 bd 3c 46 50 3d 75 cd 81 3c 9f 0f da bd
       -0.120718434 0.05084823 0.01584504 -0.10647511
000240 f9 9c b8 3d df 23 e4 bd 51 a8 a1 3d 35 bd 88 bd
       0.09014315 -0.11139654 0.07893432 -0.066767134
000250 dc 13 69 bd 5d d9 7a bd f0 15 0e bd 97 a9 c5 3d
       -0.056903705 -0.06124245 -0.03468889 0.09651487
000260 58 29 7c 3c 8c f2 fe 3d 8a d2 0e 3d f4 be 2d bd
       0.0153907165 0.12448606 0.034868754 -0.042418435
000270 1b 4e d2 3d f4 52 c7 bd 95 9d 4c bd 5c b3 06 be
       0.10268804 -0.09732619 -0.04995497 -0.13154358
000280 72 64 48 3d d9 56 4e bb b2 67 ba 3c 7f dc 4e bd
       0.048923917 -0.003148487 0.022754524 -0.05050325
000290 f4 29 bf 3d e6 4e d5 3d 2f 52 f6 3d 10 e6 76 3d
       0.09334174 0.10415439 0.12027394 0.060278
0002a0 7a 40 a4 bb 7c 60 bc 3d 7e 16 10 bd c1 94 e3 bd
       -0.005012569 0.091980904 -0.0351777 -0.11112357
0002b0 e3 0d 82 3d 71 1e d5 bc 5a 49 02 bd 99 13 ee bd
       0.06350305 -0.026015492 -0.031808235 -0.11624832
0002c0 22 b3 41 3d d6 e2 d4 bd 68 5c ea bd 8b 7b dc 3d
       0.047289975 -0.10394828 -0.11443406 0.107657515
0002d0 ec a2 50 bd 91 e0 bb 3c a7 e4 9b 3c 1f 96 94 3c
       -0.050936624 0.02293423 0.019029928 0.01813799
0002e0 7a e8 0a 3d 9f 9a c8 3d 00 05 03 3d c1 c3 dc bd
       0.033913113 0.09795117 0.03198719 -0.107795246
0002f0 d2 d9 82 3c 9c 39 57 bd 55 b5 d4 3d b7 ad a5 3d
       0.015973005 -0.052545175 0.10386149 0.08089774
000300 2b 95 ff bd f6 3c 84 3d aa 43 d7 3a 7f 7a b7 3c
       -0.124796234 0.0645694 0.0016423364 0.022397278
000310 59 2c 23 bd e1 6a fe bd 83 3b c5 3d d9 ee d8 bd
       -0.039837215 -0.12422729 0.096304916 -0.105924316
000320 d4 c5 66 3d 40 72 dd 3d 81 b5 cd bd 01 03 17 3d
       0.056341007 0.10812807 -0.10044385 0.0368681
000330 05 65 f4 bd 19 b5 04 bd 0b ae 02 3d 5e bd 45 3d
       -0.119333304 -0.03239927 0.03190426 0.048276298
000340 85 9d a5 bc 26 ca c3 bd 30 a4 d7 3d 5a 3c 84 bd
       -0.020216713 -0.09560041 0.10529363 -0.06456824
000350 1e 8e e7 bd cb 82 e7 bd f1 6e ff bd 60 64 76 bd
       -0.113064036 -0.11304244 -0.12472332 -0.06015432
000360 3c 44 40 3d f5 f6 be bd 60 78 f5 bd 83 fa 88 bd
       0.046940073 -0.09324447 -0.1198585 -0.06688406
000370 ea 26 0a bd 22 05 66 bb c6 b2 0a bd 56 ed 00 3e
       -0.033728518 -0.0035098274 -0.033861898 0.12590536
000380 9f 3d 05 3e b5 26 3c bd 94 34 2d 3c 50 f1 bb bd
       0.13011788 -0.04593535 0.010571618 -0.09176886
000390 51 50 ec 3d 3d 49 e1 3b 15 cb f7 bd 49 44 24 3c
       0.11538757 0.0068751858 -0.12099282 0.010026046
0003a0 5d bb 4b 3d 2f 16 7c bd b9 0d 15 bd 46 26 ec 3d
       0.04973923 -0.061544593 -0.03639004 0.115307376
0003b0 1a 02 0b bb 5a 4e 45 bd eb 3e a7 bd 6b 3e b4 3d
       -0.002121097 -0.048170425 -0.081662975 0.08800968
0003c0 29 92 be 3d af 5a 00 3d 2d 61 db 3c cc fa 78 bd
       0.093052216 0.031336483 0.026779735 -0.060786054
0003d0 d2 ee c3 3c 7f 0e bd bd ce 10 9e 3d 2b f3 39 3d
       0.02391759 -0.092312805 0.07718049 0.04539792
0003e0 83 df 1d bc 5b 82 e6 bd cf 4a 33 bd fb 9f cd 3d
       -0.009635809 -0.11255332 -0.043772515 0.100402795
0003f0 d0 b0 3c 3d 69 e2 89 bd b7 a6 28 3c b1 83 dd bc
       0.04606706 -0.067326374 0.010293654 -0.027040334

bias f4 [32]
000000 a3 9b be 3d 92 b6 51 bc 74 ec b3 bd 38 4b 1e 3b
       0.09307029 -0.012799876 -0.08785334 0.002415372
000010 1f 17 31 bc 77 6e 07 bd 7b b9 6a 3d fe 69 d7 3d
       -0.010808735 -0.03306433 0.057305794 0.10518263
000020 a4 11 df 3c fc 57 49 bd 61 b3 07 be 1f 64 b4 3d
       0.027230091 -0.049156174 -0.13252021 0.08808159
000030 40 d0 bc bd d8 00 a1 bd 76 b1 4d bd 6f 3b 30 bd
       -0.09219408 -0.07861489 -0.050218068 -0.04302543
000040 26 fe 9e 3d 57 57 9c 3c d5 91 af bd 69 6c 90 bd
       0.07763319 0.019084616 -0.08572737 -0.070519276
000050 63 c1 e6 3c 10 bf 9d bd 8c fd b2 bd ae be a8 3d
       0.028168386 -0.07702458 -0.087397665 0.08239494
000060 f4 6b 7a 3c 0b 9b a9 bd af ff 0b bd 45 ff e1 3d
       0.015284527 -0.08281525 -0.034179386 0.11035017
000070 d6 b2 c8 ba e4 5d 11 bd af ba bc 3b ee 0d 29 3d
       -0.0015312086 -0.03548993 0.005759559 0.04127305

weight f4 [32, 14, 8]
000000 4d 49 3e 3d 48 c3 f0 3c 46 51 22 bc 9c a8 e7 3c
       0.046456624 0.029389992 -0.009907072 0.028278641
000010 9d be 80 3d d7 87 98 3d 1b e7 b9 3d f9 01 b5 bb
       0.062863566 0.074477844 0.09077283 -0.005523917
000020 ce 69 97 bd 78 89 8a bd 06 c2 2b bc 7c ad 98 3d
       -0.073932275 -0.06764501 -0.0104832705 0.074549645
000030 75 1e 80 bc 33 8e 4c 3d 38 79 a5 bd 93 b5 3a 3b
       -0.015639523 0.0499403 -0.08079761 0.0028489574
000040 d3 55 9d 3d c0 eb 03 3d 13 72 58 3d e4 ae b8 3c
       0.07682385 0.03220725 0.052843165 0.022544332
000050 0d c0 8f bd 60 2d 03 bd a7 02 87 bc 8d ef 72 3d
       -0.07019053 -0.032025695 -0.016480757 0.059310485
000060 e1 5e a9 bc c4 18 34 bd 12 80 32 bd fb 86 2f 3d
       -0.020675125 -0.04396893 -0.04357917 0.042853337
000070 bf 72 3c 3d df 50 cb 3c d9 58 98 bd df 3e bc bc
       0.046007868 0.024818836 -0.07438821 -0.022979198
000080 aa 1b 7e 3d 37 73 80 3d 95 f3 19 bd 48 17 e7 bb
       0.0620381 0.062719755 -0.037585814 -0.007052336
000090 98 dd f1 bc 50 23 25 3d c0 43 5a 3d 79 37 80 3d
       -0.02952461 0.04031688 0.053287268 0.062605806
0000a0 18 50 eb bc 70 e3 2d bd 20 d6 1a bd 14 07 ac 3d
       -0.028724715 -0.04245323 -0.03780186 0.083997875
0000b0 92 7c 13 3d 83 b4 19 bd fd ea 43 3d cb 90 1d 3c
       0.03600747 -0.037525665 0.047831524 0.009617041
0000c0 46 e0 3a 3d 10 15 7a bd fa 85 c6 bc 48 3f 0f 3d
       0.04562404 -0.061055243 -0.024233807 0.03497246
0000d0 96 78 e7 3c 94 fa dd bb 3b 65 86 bd 7e 92 06 3d
       0.028255742 -0.006774256 -0.06562277 0.03285455
0000e0 56 c6 1f 3d ca d6 a6 3d 16 7a 95 3d a6 11 66 3d
       0.039007507 0.081464365 0.07298677 0.056169175
0000f0 41 93 5e bd 1e b2 5c bd 3f 00 14 3d 4c 6c c5 3c
       -0.05433965 -0.053880803 0.036133047 0.024099492
000100 12 aa c5 bc 3b db dc 3b 52 69 22 3d 1f a1 6c bd
       -0.024128947 0.0067400015 0.039651223 -0.057770845
000110 18 86 b9 3c b7 3e aa bd 3f ea 6c bd a8 17 30 bd
       0.022646949 -0.08312743 -0.057840582 -0.04299131
000120 79 d4 93 3d 66 5f aa 3d 65 aa a7 3d 72 2c a6 3d
       0.0721826 0.08318977 0.08186797 0.08113946
000130 f2 05 b6 3d e4 fe 45 3d 5d 82 f7 bc 37 a1 74 3d
       0.08887853 0.048338786 -0.03021353 0.05972406
000140 0f 94 ea bc 8e c1 67 3d fb ee d9 3c 12 b5 52 3d
       -0.028635053 0.056581073 0.026603213 0.051442213
000150 18 83 3d bd 05 63 9e 3d d1 b5 a0 3d 11 25 ac bd
       -0.0462676 0.0773373 0.07847179 -0.08405507
000160 5a 61 93 bd d1 0d b7 bd 95 e6 c0 bd e5 fc cd 3c
       -0.07196303 -0.08938182 -0.0941898 0.025145004
000170 cc f7 02 bd 96 24 b7 bd fa 30 8b 3c 23 77 97 3d
       -0.0319746 -0.08942525 0.016991127 0.073957704
000180 fa 11 bc bd a8 fc 2e bd 08 bd 93 bd 2d a0 ee 3c
       -0.09183116 -0.04272142 -0.07213789 0.029129112
000190 b5 91 9b bd 65 50 b4 bd ff 7c 89 bd cf 42 83 bd
       -0.07596151 -0.088043965 -0.06713294 -0.06409227
0001a0 72 c7 18 3d 01 ac 82 3d 2b 52 94 3c 72 a8 b3 bd
       0.03729958 0.063804634 0.018105587 -0.08772363
0001b0 3b 4c c0 3d 23 3c 9b 3d ee 29 45 3d 82 a2 15 bd
       0.0938954 0.075798295 0.04813569 -0.036531933
0001c0 27 31 bc bd e3 ff a6 3d 3f 21 9d bb 8b 85 b2 3d
       -0.091890626 0.08154275 -0.004795223 0.087168775
0001d0 39 d6 dd bc 7a 39 7f bd 9d 21 0d bd 8e 85 65 3c
       -0.027079688 -0.062310673 -0.034455884 0.014008893
0001e0 bb 70 67 3d f0 36 f7 3b 67 af 99 bd f7 e4 85 3d
       0.056503993 0.007544391 -0.075041585 0.06537812
0001f0 13 a5 4a 3d 81 b2 ab bd 3e 26 95 bd a0 45 84 3c
       0.049473833 -0.08383656 -0.07282685 0.016146481
000200 74 d7 db 3c 49 5f 62 3d 77 97 0d bd 93 56 83 3d
       0.026836134 0.055266652 -0.034568276 0.06412997
000210 6d 25 9c bb b4 20 85 3d 02 76 3d bd fc f0 93 bc
       -0.0047652037 0.06500378 -0.04625512 -0.018059246
000220 d6 82 90 3d bf b8 f8 bb ed a5 a3 3d 34 e7 8f bd
       0.07056205 -0.007590383 0.07990632 -0.0702652
000230 b7 82 9a 3d 57 e8 3a bd 76 12 d9 3c 65 be 0e 3d
       0.07544463 -0.045631733 0.02649806 0.034849543
000240 d4 8c 73 3c 01 1f 2e bd 58 9c 8a 3d 58 4c 8e 3d
       0.014865119 -0.042510036 0.067681015 0.06948155
000250 26 4f 4e 3d 9d 83 54 3d 7d 71 78 bd 8b b8 88 bd
       0.05036845 0.05188333 -0.060655106 -0.06675824
000260 9a fe 17 bd 3e 61 a2 bd 60 f3 c4 3c 16 37 be 3d
       -0.03710804 -0.07928704 0.024041831 0.092878506
000270 13 31 3b bd 41 45 8e bd 42 83 97 3d 74 0f 94 3d
       -0.045701098 -0.06946803 0.07398082 0.0722951
000280 6e c8 fa bc c1 ba a5 3d c3 97 a3 3c 79 4a 64 3d
       -0.03061315 0.08092261 0.019969827 0.055735085
000290 94 81 83 bb ee be 12 bc 98 44 b5 3d 5f 78 48 3d
       -0.0040132497 -0.008956654 0.08850974 0.04894292
0002a0 2c ca 08 3c ab 74 86 bd 3b ed 1a bd 49 aa b2 bc
       0.008348983 -0.065652214 -0.037823897 -0.021809714
0002b0 b0 43 a7 bb d4 d3 5a 3d ff 43 98 3d ab e3 b8 3d
       -0.0051045045 0.05342467 0.07434844 0.09027799
0002c0 a0 99 c0 bd 11 61 57 bd 73 8b 72 bd aa 40 8f 3c
       -0.09404302 -0.052582804 -0.05921502 0.017486889
0002d0 b8 30 2a 3c 4e 4a 5c 3d 70 b2 63 bb f4 ea 53 bd
       0.010387592 0.0537818 -0.0034743808 -0.05173774
0002e0 e9 14 8d bd d8 f0 19 3a a4 81 a2 3d 96 2f bc 3d
       -0.06888754 0.00058723753 0.07934883 0.09188764
0002f0 4f 16 8c 3d c6 f3 91 bb 20 f8 63 3d f4 1e 12 3b
       0.068401925 -0.004454109 0.055656552 0.0022296282
000300 ad fa 7f bc 95 51 79 bd dd 38 be bd 49 20 af 3d
       -0.015623731 -0.06086882 -0.092881896 0.0855108
000310 15 ca 3e bd 65 12 af 3d d8 5b 3f bd d7 87 aa bc
       -0.04657944 0.0854843 -0.04671845 -0.020816727
000320 53 ef 84 bd 0e f0 6d 3d 96 40 5f 3d 91 33 b0 3d
       -0.0649096 0.058090262 0.054504953 0.086035855
000330 76 bc bd 3d f5 6f 8e 3d 08 01 99 bd 07 d1 e1 bc
       0.09264462 0.06954948 -0.074709 -0.027565492
000340 2a 5f bc 3b 61 46 bf bd fd 74 08 39 50 cb 7a 3a
       0.005748649 -0.093395956 0.00013013552 0.0009567039
000350 4c 0c c2 3c 0e 13 de bb 70 7a 5e bd 9e 37 af bd
       0.023687504 -0.006777174 -0.054315984 -0.0855553
000360 0a 6c 4c 3d 80 a5 a2 3d 54 17 f6 bc 4c 0c 48 3b
       0.04990772 0.07941723 -0.03004042 0.0030524908
000370 4e a1 23 3d 5e f8 8d bd ff b0 ac 3d 8c 00 aa bd
       0.039948754 -0.06932138 0.08432197 -0.083008856
000380 6b 11 aa bc f0 d2 aa bd 56 27 bf bd a2 ff a5 3d
       -0.020760259 -0.083410144 -0.093336746 0.08105399
000390 f7 48 bc 3d 8c f2 c0 3d fb 51 2c bc 2b 56 b1 3d
       0.091936044 0.09421262 -0.010517593 0.08659013
0003a0 5a 56 2c bd 3d e6 37 bd dc 97 ba 3d 12 32 75 3d
       -0.04207454 -0.044897307 0.09110996 0.059862204
0003b0 20 3e b2 3d 62 23 05 bd 63 f8 ba bd 01 34 98 3c
       0.08703256 -0.032504447 -0.09129407 0.018579485
0003c0 8c bf 57 bd 1a 8d a8 3d 46 34 17 bd 09 9a 9c bd
       -0.052672908 0.08230038 -0.036915086 -0.076465674
0003d0 03 ed b8 bd 98 ea 9f bd ed b0 a7 3d 1f 0a ab bc
       -0.090295814 -0.07808417 0.08188043 -0.02087885
0003e0 c7 3b 6b 3d 48 9e a9 bd 6c 62 8d bc da dd 47 bd
       0.057430055 -0.08282143 -0.017258845 -0.04879556
0003f0 ee d2 a8 bd f3 16 c8 bc 3e a6 b3 bd f1 32 1c bb
       -0.08243357 -0.024425006 -0.087719426 -0.0023834074

bias f4 [32]
000000 c7 5c 3f bc 01 45 5b 3d 02 a3 9f bd 62 49 a5 3c
       -0.011679835 0.053532604 -0.07794763 0.020176593
000010 c3 44 0a bd fd 81 b8 3d ca 8e 6d 3d d9 ba 74 3d
       -0.033756983 0.09009168 0.057997502 0.059748504
000020 f5 bb e0 3b 0d 4e 97 bd 77 58 b1 bd 10 f2 b9 3d
       0.0068583437 -0.07387934 -0.086594515 0.09079373
000030 9b e5 a0 bd 78 97 2f bd e5 20 68 bd 63 60 b2 bd
       -0.07856294 -0.04286906 -0.056671996 -0.087097906
000040 79 06 65 bd b3 42 3a bd b5 5f ca bc 4a a3 12 3d
       -0.055914376 -0.045473766 -0.02470384 0.035800256
000050 99 9e b3 bd 3c c3 ef 3c 6c 01 96 3d ab be 2d 3c
       -0.087704845 0.0292679 0.0732449 0.010604541
000060 0e d4 b4 bd 47 36 8d bd af 78 89 bd 73 9e 43 bd
       -0.08829509 -0.06895118 -0.06712472 -0.04775853
000070 0d b2 86 bc 9b b0 7c 3d 5a 48 85 3d de ba 4b 3d
       -0.016442323 0.06169186 0.065079406 0.049738757

weight f4 [32, 96, 2]
000000 59 fa f3 3c fe cf 3f bd f9 ed 2d bc e4 d9 c5 3c
       0.029782461 -0.046829216 -0.010615819 0.02415175
000010 1e ef 36 bc e3 2a 56 3d e8 2a b3 3c 8f 46 f6 bc
       -0.011165408 0.052286994 0.021871045 -0.030062942
000020 98 1b ee bc e7 d1 6d 3d b8 92 92 3d e8 dc 81 bd
       -0.029065892 0.058061507 0.07156891 -0.06340963
000030 7b aa 71 bd f1 89 09 3d 3a 3d 18 bd ae cd 92 3d
       -0.059000473 0.033578817 -0.037167765 0.071681365
000040 61 c2 8f bc 3f c3 67 3d d7 ef 21 3d fd 8c 8f 3d
       -0.017548742 0.056582686 0.03953537 0.07009313
000050 2d f6 8e bd 0a 53 8b 3d fb a2 d4 bc ec 80 59 bc
       -0.06980548 0.06802948 -0.025956621 -0.013275366
000060 38 1b 34 3d ef da 3e bd 97 64 03 3d 06 f9 4f 3d
       0.04397127 -0.04659551 0.03207835 0.050774597
000070 98 c8 84 3d 42 bd 67 3d 7f ae 1b bd 5a 8d 90 3d
       0.06483573 0.056576975 -0.03800821 0.07058211
000080 43 75 a0 3c 66 12 10 bd c7 0b 94 3c 9c 55 4b 3d
       0.019587165 -0.035173796 0.018072022 0.04964219
000090 89 6e 8c bd fa 91 f9 3c 13 b0 0e bd 68 1f 5f bd
       -0.068570204 0.030465115 -0.034835886 -0.05447331
0000a0 e5 e0 6f 3d 1b 02 35 3d 89 47 08 3d 22 47 4c bd
       0.058564086 0.04419146 0.033271346 -0.049872525
0000b0 0a 16 70 bc 44 cc d6 bc 1a c5 26 bd fc fa 2e bd
       -0.014653692 -0.026220448 -0.040715314 -0.042719826
0000c0 2d 98 3a bd 87 c8 d5 3c 08 55 0b 3d ea 87 29 3d
       -0.045555282 0.026096595 0.03401664 0.041389383
0000d0 0e 0d c0 3b b6 cd 2a bd d2 34 5a 3d 05 f0 02 bc
       0.0058609312 -0.041700087 0.05327303 -0.007991795
0000e0 00 0a 5d 3d cb c1 80 bb 4c 0c 7d 3d df aa 19 3d
       0.053964615 -0.003929352 0.061779305 0.03751647
0000f0 ba ac 33 3d 86 4a 8e bd b4 dd 33 bb 66 e7 a0 bc
       0.043865897 -0.06947808 -0.0027445378 -0.01964159
000100 ec ff 42 bd 55 91 64 3d 80 fb 0c 3d 18 79 34 bd
       -0.047607347 0.055802662 0.034419537 -0.044060796
000110 c9 e4 0d 3c 15 fb 48 bd 48 ff 40 bd 97 10 23 bb
       0.008660504 -0.049067575 -0.047118455 -0.0024881714
000120 67 ba 8b 3d b8 de 39 3d d4 33 f5 bb 22 76 0d bd
       0.06822663 0.045378417 -0.007482985 -0.03453649
000130 d9 be 3a 3d b1 11 7f bd f6 09 b3 3c e9 9a 89 bd
       0.045592163 -0.06227273 0.021855336 -0.06719
000140 ef 95 ce 3c 4e e3 73 3c 73 92 17 3d 82 cf 38 bc
       0.025217978 0.014885737 0.0370049 -0.0112799425
000150 c4 99 82 bd fb 3d 46 3d 39 36 22 bd 21 cb a6 bc
       -0.06376985 0.048398953 -0.039602492 -0.020360531
000160 51 47 1d 3d bf 25 41 bd 0d c9 49 3d cd 1a 63 bd
       0.03839809 -0.047155138 0.049264003 -0.05544548
000170 e6 76 cb 3c 46 23 34 ba d2 55 c1 bc b9 6c b1 3b
       0.024836969 -0.0006871711 -0.023600493 0.005414572
000180 c0 7d 78 3b d9 10 94 3c 3f 43 ff bb 7b 24 61 3c
       0.003791675 0.01807444 -0.007789999 0.013741608
000190 f3 f2 f4 3b 39 0e 04 3d a4 ec 08 3d 31 5e c0 3c
       0.007475251 0.032240126 0.033428803 0.023482414
0001a0 00 30 82 bd 2c 60 09 3d c6 19 73 bd ab 31 97 bc
       -0.063568115 0.033538982 -0.05935075 -0.0184563
0001b0 80 f6 3d 3d 48 2d 45 bd cc d7 c4 bc d9 c5 45 3d
       0.04637766 -0.048138887 -0.024028681 0.048284385
0001c0 ac 52 72 bd 0b a0 bd bb 04 b6 3b 3d 95 50 15 3d
       -0.059160873 -0.005786901 0.04582788 0.036453802
0001d0 2a eb 1c 3d 10 a9 56 3b a0 df 8e 3d 33 05 4d 3d
       0.038310207 0.0032754578 0.06976247 0.050053786
0001e0 29 07 51 bd 4a e6 8d 3d 35 be 86 3c a4 e0 07 3d
       -0.05103222 0.0692869 0.01644812 0.03317322
0001f0 6c ce 9a bc 8a 1c 82 3d 07 62 cf bc fc e1 04 3c
       -0.018897258 0.063531 -0.025315298 0.0081105195
000200 29 4e 0c bd 7f c1 8d 3b 8a a7 fd 3c df 05 be 3c
       -0.034254227 0.004326045 0.030963678 0.023196159
000210 ac be e8 3c 56 53 88 bd 11 6b 36 3d 23 c1 75 3c
       0.028411232 -0.0665652 0.0445357 0.014999661
000220 b9 69 07 bd 17 50 3c 3d d5 35 92 3c 1c d8 27 bd
       -0.03305981 0.045974817 0.017847935 -0.040977582
000230 72 db 47 bd 0d 4b 8f bd f1 b0 81 bc 02 2a 21 bd
       -0.048793264 -0.06996737 -0.015831443 -0.039346702
000240 32 8d 6c bd 0c 0c 91 bc ca e5 69 bc e9 01 93 3c
       -0.05775184 -0.01770594 -0.014275977 0.017945247
000250 7e ba 8f 3d f6 86 06 bd 8d 1d c7 bc 0e 30 bc bb
       0.070179924 -0.032843553 -0.024306083 -0.0057430333
000260 72 ca c2 3c 2c d0 31 3d a6 73 61 bc 3e 25 1e 3b
       0.023778174 0.04341142 -0.013760483 0.0024131085
000270 2d 96 5a 3d 36 8e 5d bd 67 3f 1c 3d 01 1f 3b 3d
       0.053365875 -0.0540907 0.038146403 0.045683865
000280 71 67 6b bd e4 9d 35 bd cb 79 89 bd 57 57 7c 3d
       -0.057471696 -0.04434003 -0.06712683 0.06160673
000290 64 76 8f 3d 91 ab 4f ba a7 88 7f 3d 53 21 86 bd
       0.07005003 -0.0007921989 0.06238618 -0.06549325
0002a0 df d1 39 bc 47 ec dd bc 37 43 3b bd 35 c7 e8 ba
       -0.011341541 -0.027090205 -0.045718398 -0.0017759564
0002b0 29 a0 e3 3c e2 13 7c 3c 2e 52 7b 3d 61 af bb ba
       0.027786331 0.0153856 0.06135767 -0.0014319235
0002c0 0c 4b a6 3c b5 78 37 3c 93 1a 3c 3d f4 f7 62 3d
       0.020299457 0.011198212 0.04592378 0.055412248
0002d0 85 f9 69 bd 8c 94 3b bd 23 04 b8 bc c4 80 14 bd
       -0.057122726 -0.045795962 -0.02246291 -0.036255613
0002e0 be cc 3e bd 19 15 89 bc a2 e0 ef 3c 8b f1 1a 3d
       -0.046581976 -0.016733693 0.029281918 0.03782801
0002f0 f9 89 13 bd 94 30 6f bd 42 ae 5e bd 9f e7 74 ba
       -0.036020253 -0.058395937 -0.054365404 -0.00093423756
000300 2c 0a dc bc ae 20 b8 bc 55 1b 55 3d 4e 78 16 3d
       -0.02686032 -0.02247652 0.05202802 0.036735825
000310 e4 b0 8a 3d 43 26 c4 bc e7 92 e5 3c 60 d3 1a 3d
       0.067720205 -0.023944026 0.02802415 0.03779924
000320 da 00 83 bd 28 41 21 bc d0 26 b7 bc 29 9b 55 bd
       -0.06396647 -0.009842195 -0.022357374 -0.052149925
000330 09 21 7b bd 29 46 f5 bc ed b9 25 bd f3 71 5d 3c
       -0.0613108 -0.029940682 -0.040460516 0.013515937
000340 12 4e 0d 3d cb e7 29 3d aa 09 aa 3c 0f 52 6a 3d
       0.03449828 0.04148082 0.020756561 0.057207163
000350 26 93 fa 3b be fa 56 3d 39 ef 82 ba de 11 3b bc
       0.007646936 0.05248522 -0.0009989507 -0.011417834
000360 0c 88 88 bd 57 0a 0f 3d a9 86 92 bd 18 50 ce bc
       -0.06666574 0.03492197 -0.07154591 -0.025184676
000370 06 d6 08 bd 8d 22 49 3b e9 58 91 3d 43 f3 6c bd
       -0.033407234 0.003069076 0.070970364 -0.05784918
000380 56 5d 81 bd e2 57 95 bc ac 4a 37 bd 88 34 d8 3c
       -0.063166305 -0.018230382 -0.044748947 0.026392236
000390 ae 60 3f bc 45 a8 08 3d a6 37 21 3d 64 64 03 3c
       -0.011680765 0.0333636 0.03935971 0.00801954
0003a0 aa e5 ec 3c 13 86 36 bc 5f 6b 0c 3d 2b 78 48 bd
       0.028918106 -0.011140364 0.034282085 -0.048942726
0003b0 9b af 00 ba ad ac 8f 39 6b 48 5d bd 2c 9d 61 bd
       -0.000490898 0.0002740374 -0.05402414 -0.05508153
0003c0 37 19 57 bd 39 b1 33 3d bb 26 4c 3d 10 ae 8e 3b
       -0.05251428 0.043870185 0.049841624 0.004354246
0003d0 ec 2c 78 3b fa 34 b9 3c 65 c8 98 3c 4f 0d 29 3c
       0.0037868572 0.022608269 0.018650243 0.010318114
0003e0 b1 40 71 3d 85 5e 60 3d 49 fd 6e 3d ee 9f 43 3d
       0.058899585 0.05477764 0.05834702 0.047759943
0003f0 1c 0a 08 3d 69 03 8f bd 37 22 92 3d e4 87 16 3d
       0.033212766 -0.06983072 0.07135432 0.03675069

bias f4 [32]
000000 8d 09 23 bc 16 f1 8f 3d a3 b1 93 bd 19 02 2a 3d
       -0.009951008 0.07028405 -0.07211616 0.041505907
000010 7c f7 82 3d 62 10 b2 bc 04 76 25 bd b1 c9 47 3d
       0.0639486 -0.021736328 -0.04039575 0.048776332
000020 d6 10 0d 3d 99 c3 b5 bc 94 a7 74 3d 2f 12 3b bd
       0.034439884 -0.022187995 0.059730127 -0.045671638
000030 25 6b 80 3d cc 0a a1 3c be 6e 25 3d ec 36 98 3c
       0.06270436 0.019658469 0.040388815 0.018580876
000040 86 06 67 3d ed 2a 34 bc 05 f0 36 bd 98 f9 0b bd
       0.056402706 -0.010996562 -0.044662494 -0.034173578
000050 51 78 41 bc 51 62 b9 3c d0 62 84 3d 93 7c a8 bc
       -0.011808471 0.022629889 0.064641595 -0.020567214
000060 ec 80 1c bd ce b3 10 bd c8 ce ae bb c3 fe a2 bc
       -0.038208887 -0.035327725 -0.005334709 -0.01989687
000070 a0 77 05 3d 50 ee db bc a0 7b 96 bc 55 6d 15 bd
       0.032584786 -0.026847035 -0.018369496 -0.03648122

weight f4 [32, 96, 4]
000000 c1 91 46 bb 75 e5 e6 ba eb be 73 3c be e6 d4 bc
       -0.0030299278 -0.0017615991 0.014877061 -0.025988933
000010 42 30 8b bc ff 28 de 3c ac 3a 9b 3c 1c 07 f9 bc
       -0.016990785 0.027119158 0.018948875 -0.030398898
000020 94 48 d6 3c 00 37 a4 3c 2f b4 1b 3d 90 c6 1d bd
       0.026157655 0.020045757 0.038013633 -0.038519442
000030 b6 03 d7 bc 6f 16 b5 ba 98 81 12 bd 8d 36 40 bd
       -0.026246887 -0.001381589 -0.03576812 -0.046927024
000040 17 98 42 b9 4b e6 4e 3d 1c 58 88 3c d7 ea 3f 3d
       -0.0001855794 0.050512593 0.016643576 0.04685482
000050 3b eb 13 bd 89 38 3d bd 8b b9 46 bd e4 54 76 3c
       -0.036113005 -0.046196494 -0.04851679 0.015034888
000060 6f e1 de bc b5 83 25 bd b8 ea 08 3c 84 6d 83 3c
       -0.027207104 -0.04040881 0.008356743 0.016043432
000070 0c 06 1b bd fb 7f b4 bc 10 6f 19 3d 7e 67 24 bc
       -0.037847564 -0.022033682 0.037459433 -0.01003444
000080 b5 d4 38 bd 76 25 b1 bc 53 f8 2b bd 17 39 4d 3d
       -0.04512473 -0.021624308 -0.041984867 0.050103273
000090 3e 98 03 3c a8 e1 ca bc 86 2b 10 3d 29 56 c2 3b
       0.008031903 -0.024765804 0.035197757 0.0059306812
0000a0 b1 70 44 bc 13 26 07 3c 44 34 47 3d 51 e2 d4 bc
       -0.011989758 0.008248824 0.04863383 -0.025986822
0000b0 9a f2 17 3d 88 97 e2 3c 64 fd 6e 3c 33 34 a2 3c
       0.037096597 0.027660146 0.01458678 0.019800281
0000c0 26 e9 3b 3d 62 e3 31 bb 89 68 37 3b 56 c8 0d 3c
       0.045876645 -0.0027143587 0.0027985892 0.008653721
0000d0 6c 5e 3a 3c 94 e9 23 bd 82 0d 07 bd 2d 42 a9 3c
       0.011375051 -0.04001768 -0.032971866 0.020661438
0000e0 d6 1a a6 3c ef c1 8d 3c 0e a2 12 bd e9 39 2c 3d
       0.020276468 0.017304389 -0.03579908 0.042047415
0000f0 24 a6 2c 3d 83 8e 0f 3c 2e 24 a4 39 85 e5 2a 3a
       0.04215063 0.008762005 0.00031307474 0.00065191864
000100 96 3b 06 bd 39 1d d8 bc 0c b0 df 3c 66 b4 5a bc
       -0.03277167 -0.026381122 0.027305625 -0.013348674
000110 8c 9d ad bc e9 02 d1 3c bf 3b 1d 3d 82 42 d1 bc
       -0.021193288 0.025514083 0.038387056 -0.025544409
000120 01 cc 2f bd 6e 9f 14 3d 1b 6f ee bc b6 17 cb 3c
       -0.042919163 0.036284856 -0.029105714 0.02479158
000130 f7 88 35 3d 7a 01 0a 3d c3 2e fe bc c6 60 ef bb
       0.044320073 0.033692814 -0.031028157 -0.0073052375
000140 e0 ae b5 3c 37 24 7c bc a1 74 0c bd 61 4f 00 bc
       0.022178113 -0.015389494 -0.034290913 -0.007831425
000150 18 89 12 bd ac 3d 11 bd 47 ec a3 3c 35 c2 aa bc
       -0.035775274 -0.035459206 0.020010127 -0.020844558
000160 39 20 0a bc 4b a8 02 bc 2d 23 35 3d be a0 38 3b
       -0.008430534 -0.0079746945 0.044223 0.0028171982
000170 9e 64 57 3c 51 35 18 3d 31 be 3e 3d b4 58 e0 bc
       0.013146548 0.03716022 0.0465681 -0.027386047
000180 e8 d2 a6 3b 90 68 0b 3d a4 16 d8 3c 1d ea aa 3c
       0.00509106 0.034035265 0.026377983 0.020863587
000190 9d 48 c6 3c eb e6 91 bc cd 72 d4 3c 42 e8 4c 3d
       0.024204547 -0.017810306 0.025933648 0.050026186
0001a0 e6 74 92 3c 03 ce 20 3d fe f1 83 bc 9c 03 22 bd
       0.017878007 0.039258968 -0.016106602 -0.039554223
0001b0 ba 28 91 3c 27 2e e2 bc 61 8c f9 3c e9 d5 1f 3b
       0.017719615 -0.027609898 0.030462446 0.0024388975
0001c0 27 e8 20 3c 8e e1 2e 3d 71 79 a8 bc 82 35 e8 3c
       0.009820974 0.042695574 -0.02056572 0.028345827
0001d0 3e 4e 10 bd 3a c1 47 bd 92 51 78 3c a4 e8 96 3c
       -0.035230868 -0.04876826 0.015156167 0.018421479
0001e0 fe 7e 12 bd 84 16 ce bc a4 56 18 3d 64 1c 19 bd
       -0.03576564 -0.02515722 0.037192002 -0.03738059
0001f0 23 29 bd bb 5d dd be bc c2 c0 df 3b f1 6e 10 bd
       -0.005772726 -0.023298914 0.0068283984 -0.035262052
000200 86 19 04 bd 71 77 11 3c 8b b9 94 bc 86 d3 92 bc
       -0.032250904 0.008878575 -0.01815488 -0.017923128
000210 2a 7d 97 3c c2 bd ed 3c bd 5b 25 3d 2b 5d 23 bd
       0.0184923 0.029021148 0.04037069 -0.039883774
000220 f9 86 1c bd b7 36 d3 bc dd 1a 93 3a 70 1f ad 3c
       -0.038214657 -0.025782926 0.0011223216 0.021133155
000230 48 66 0f bd 91 b3 fb bb 09 cc 96 3c ac 25 05 3b
       -0.035009652 -0.007681318 0.018407838 0.0020316644
000240 fd 7a 47 3c 1e 3f 39 bc aa 5c 4a bd 69 2e 2c 3d
       0.012175319 -0.011306552 -0.049404778 0.042036448
000250 f9 a9 f1 3c df 38 4e 3d 7d 32 b9 3c 3c 43 6d 3c
       0.029499995 0.050347205 0.022607083 0.014481362
000260 49 ac 03 3d 26 c6 78 bc d6 f2 02 bd 14 6a 05 3c
       0.032146726 -0.015183961 -0.031969868 0.008142967
000270 ad 66 f6 bc 74 76 81 3c 48 fd 1f bc 0c 22 1d 3d
       -0.030078257 0.015803553 -0.009764977 0.038362548
000280 15 ce cb bb 4d 66 93 3c 19 c5 a7 3c 5c df 2a 3d
       -0.0062196353 0.017993117 0.020479726 0.04171692
000290 96 f2 47 3d cf 02 24 bc fe 2f ca 3c 49 b0 fc 3c
       0.048815332 -0.010010435 0.024681088 0.030845778
0002a0 fe 31 0d bd 80 39 e9 38 07 98 19 bc e4 17 46 3d
       -0.034471504 0.00011121016 -0.009374625 0.048362628
0002b0 ab 02 14 3d 0a a9 3b bd 8c 32 bb bc e0 a8 31 bd
       0.036135357 -0.045815505 -0.022851251 -0.043373942
0002c0 1b 7b 95 bc ae a7 43 3d 54 7a dd 3c 19 83 22 bd
       -0.018247178 0.047767334 0.02703587 -0.039675806
0002d0 e2 c9 4c bd da b6 02 bd df f0 e3 3b a5 9c eb 3b
       -0.049997218 -0.031912662 0.0069562043 0.0071903043
0002e0 ca 4f 4d 3d 14 19 66 3c fb 4e e5 bc 9c 66 33 bc
       0.05012492 0.014044065 -0.027991762 -0.010949757
0002f0 f9 eb 90 bc ef 36 c4 3c 5d 7e 49 3d 19 2e fa 3b
       -0.017690646 0.023951976 0.049192775 0.00763489
000300 0d 6b c0 bc 21 e0 fb 3c a6 d8 6f 3c 74 c2 89 bc
       -0.023488546 0.030746521 0.014639055 -0.016816355
000310 8a a2 c7 3c 63 ba 5c bc b6 c9 a1 bc bd ba 46 3d
       0.024369497 -0.013472172 -0.019749504 0.04851793
000320 83 55 d7 3b 0b 98 46 3d f1 04 da 3c f7 45 0d bd
       0.006571473 0.048484843 0.026613684 -0.03449055
000330 4f 84 f3 bc 58 3d 39 3d 6c 0d 40 bd eb 10 d1 bc
       -0.029726176 0.045224518 -0.0468878 -0.025520762
000340 5d 07 e3 bc c3 0d af bc 7b fa e2 3c 42 49 3f bc
       -0.027713472 -0.021368867 0.027707329 -0.011675181
000350 dd da 9e 3c bf 36 3a 3c 29 4d 51 3b 48 dd 29 3d
       0.019391472 0.011365592 0.003193686 0.041470796
000360 48 4c 35 bd c4 75 e0 b8 37 79 03 bc 55 7e 02 bd
       -0.0442622 -0.00010703088 -0.008024505 -0.03185876
000370 af 6b 13 3d dc 9f 37 3d cc a5 e5 3c a2 05 eb bc
       0.035991367 0.04483019 0.02803316 -0.02868921
000380 eb 5a 39 bd 0c f4 71 3b b4 5d 07 3d 01 9e 25 bd
       -0.04525272 0.0036919145 0.033048347 -0.040433887
000390 0a 29 f3 bb 37 d2 55 3c 71 53 37 bd 79 fb 22 3d
       -0.0074206637 0.013050607 -0.04475731 0.039790604
0003a0 90 34 09 bc 62 0e 55 3b 49 73 14 bd 05 11 4f bd
       -0.008374348 0.0032509794 -0.036242757 -0.05055334
0003b0 1a a9 0f bc 2c be c7 3b e6 c3 95 3c fb 79 c3 3c
       -0.008768344 0.0060956683 0.018281888 0.023861876
0003c0 ad 05 a5 3c 05 e9 02 bd 09 80 81 3c d7 d7 d5 bc
       0.020144308 -0.031960506 0.015808122 -0.026103897
0003d0 9d 43 f7 3b 05 4c 86 3a f5 49 56 bb 51 be 3a bd
       0.007545902 0.0010246044 -0.003269789 -0.045591656
0003e0 f8 5b 85 3b 7d c5 10 3d b7 4a 29 3d f6 b0 ca bc
       0.0040698014 0.03534459 0.04133102 -0.024742585
0003f0 25 df 07 3d 57 5e 61 3c 5b 5b 28 bd d7 4c c9 bc
       0.03317179 0.0137554025 -0.04110275 -0.024572773

bias f4 [32]
000000 5d f8 ca 3c cb 28 e6 3c a6 6f b4 3c 30 7a 14 3c
       0.024776632 0.028095623 0.022025894 0.009062335
000010 fd 83 2f bd 0b d6 4b bc da 1d 2c bd 77 18 5d 3b
       -0.042850483 -0.012441169 -0.042020656 0.0033736506
000020 a7 8d 1f bd 69 ed 71 3b 55 a6 93 bb 78 a0 ad bc
       -0.03895345 0.003691519 -0.0045059123 -0.021194682
000030 f9 e6 42 3d 21 76 54 bc f2 21 d3 3c 98 36 79 3c
       0.047583554 -0.012967617 0.025773022 0.01521077
000040 13 70 97 39 09 03 20 bd ef 93 ea 3c b8 23 0a 3d
       0.00028884466 -0.039065395 0.028634993 0.03372547
000050 10 d6 f2 3b b3 42 c4 3c 29 47 0c 3d 1d 70 4b bd
       0.007410772 0.023957586 0.03424755 -0.049667466
000060 2d 68 34 3d 17 d8 12 3d 7a c9 34 3a 16 c2 21 bd
       0.044044662 0.03585061 0.00068964774 -0.039491735
000070 f9 5f 2f 3d c3 6f d1 3b 19 b9 8a 3c e0 67 9b 3c
       0.042816136 0.006391497 0.016933965 0.01897043

weight f4 [32, 96, 8]
000000 20 f8 cb bc 99 6b 59 bb 04 26 12 bd d6 83 cf 3b
       -0.024898589 -0.0033175705 -0.035680786 0.0063328547
000010 dc 01 80 bb a2 a8 41 bc 11 65 ab 3b 32 2f dd 3b
       -0.0039064717 -0.01181999 0.005230554 0.006750011
000020 a8 2a 8f bc 00 3d fc 3c d9 85 13 3d c7 13 e9 bc
       -0.017476395 0.030790806 0.03601632 -0.028451813
000030 88 90 75 3c 59 f2 69 3c 21 f1 a8 3c 14 b4 16 bc
       0.014988072 0.014278972 0.020622792 -0.009198207
000040 0c f1 dd bc 12 0c 33 bc 64 ab af bc b5 53 70 bc
       -0.02709248 -0.010928171 -0.02144403 -0.014668395
000050 93 a7 ef 3c 23 0a 94 bc 32 e7 cc bb 26 96 0f 3d
       0.02925471 -0.01807124 -0.0062531466 0.035055302
000060 ff 90 d9 3c 41 15 4a bb 16 f6 c7 3c 4f 83 87 3c
       0.026558397 -0.0030835422 0.024409335 0.016542105
000070 8b 84 c3 3c 59 28 d4 ba 4d ed 41 3c 2f dd e7 bc
       0.023866912 -0.0016186341 0.011836362 -0.02830371
000080 c3 39 8c ba dc 48 ba bc 80 ec 85 ba ef f7 63 3c
       -0.0010698367 -0.02273982 -0.0010217577 0.013914092
000090 e7 f9 bd 3c fa 64 06 3d 30 e7 b9 bc c7 90 b0 bc
       0.023190452 0.032811143 -0.022693247 -0.02155341
0000a0 0c d9 be 3c 54 88 9b bc ec 5f 0e 3c 3d 7f ed 3c
       0.023296855 -0.018985905 0.008689862 0.028991336
0000b0 a4 22 06 bd 36 86 a8 ba 18 d6 51 3c 30 eb 54 bc
       -0.03274788 -0.0012857381 0.012807392 -0.012995526
0000c0 99 0d f6 bb dc 7e 38 3b ac 17 13 3d ed 97 08 bd
       -0.007508945 0.0028151786 0.035911247 -0.033348013
0000d0 50 0b 8c 3c 8e cf 0d bd 6a 7c 10 3d 83 10 1b bc
       0.017095238 -0.034621768 0.0352749 -0.009464386
0000e0 4d b3 96 bc 95 ce 61 bc 40 70 23 bc 1e 9f 67 bc
       -0.018396044 -0.013782163 -0.009975493 -0.014137058
0000f0 1a 3d 90 bc e6 b4 09 bc e1 24 bd bc 78 c4 3e 3c
       -0.01760726 -0.008404946 -0.023088874 0.0116435215
000100 b5 0b 47 bc 2d 6a ac 3b 82 1a c2 3c 80 55 31 bc
       -0.012148787 0.0052616806 0.02369428 -0.010823607
000110 96 c3 09 3d 53 a0 ff bc b7 7f 0f 3d 35 7e 69 bc
       0.03363379 -0.031204378 0.035033908 -0.0142512815
000120 65 a6 0a 3c 26 ef e3 bc 3c 79 09 bd c9 d8 12 3d
       0.008462523 -0.027823996 -0.033562884 0.035851274
000130 bd 36 07 3d 66 02 14 3c 8e 6e 09 bd 32 ad 88 bb
       0.033011187 0.009033775 -0.0335527 -0.004171037
000140 d0 2e 90 bc 54 f3 0f bd a6 13 99 3b 37 c3 01 3d
       -0.017600447 -0.035144165 0.0046715317 0.031680312
000150 ae 9d a7 bb df f9 01 bd 02 a8 ca 3c 92 61 df 3b
       -0.0051152324 -0.031732436 0.024738315 0.006817051
000160 7e c4 8f 3c d0 d1 f0 3c ce 60 6d 3c 32 1c 2c 3c
       0.01754975 0.029396921 0.014488412 0.010504769
000170 b8 df ad 3b c1 70 ba 3c 80 92 c9 bc ab 77 85 3c
       0.0053062104 0.022758843 -0.02460599 0.016292414
000180 60 c0 59 3c 6d e8 0c 3d 21 7f c2 3c bb 3f e1 3c
       0.013290495 0.034401346 0.02374226 0.02749621
000190 56 fb 54 bc c3 5c a0 bc c5 61 09 3d d7 ba 5f 3c
       -0.012999376 -0.019575482 0.033540506 0.013655386
0001a0 91 f1 b1 bc eb f4 a8 3a 6c 86 07 bd 38 9a f3 3c
       -0.021721633 0.0012890374 -0.03308718 0.029736623
0001b0 b9 f8 3e 3b 2a 46 89 bc 06 c0 62 3b 55 33 e4 3a
       0.002913995 -0.01675709 0.0034599318 0.0017410318
0001c0 d5 1f d2 bc 68 b0 88 bc 78 75 84 3c 3b ef 25 3c
       -0.025649944 -0.01668568 0.016169295 0.010127838
0001d0 f2 17 ea bb a0 2c 08 3b 8e c9 0e 3d 43 65 0c bc
       -0.007143968 0.0020778552 0.034860186 -0.008569065
0001e0 ad 6d eb bc 5e d6 89 bc e1 72 53 3c d1 7e d4 3c
       -0.02873882 -0.016825851 0.012905807 0.025939377
0001f0 cc 13 d3 3b 12 5e 7c 3a f6 66 41 3b 17 a0 b2 bb
       0.006441569 0.00096270547 0.0029510832 -0.005451213
000200 31 ee f8 bb c1 75 cd bc 2d 0f 0d 3d 02 66 96 3c
       -0.007596754 -0.025080564 0.0344383 0.018359188
000210 ef 65 f6 3c a5 67 fe 3c ac 3d 50 3c 53 dc b2 bc
       0.030077903 0.031055281 0.012710016 -0.021833574
000220 71 5e 3e 3c cb 0d d8 3c be c2 29 bc 06 31 80 3b
       0.011619196 0.026373765 -0.010361372 0.003912094
000230 96 6f c5 3b 85 26 bc bc cc 45 99 3c 70 33 97 3a
       0.006025265 -0.022967586 0.01871004 0.0011535715
000240 9f 21 a2 3c 79 34 85 3c fd 1a 15 bc 1a 05 8f 3c
       0.019791422 0.016260372 -0.009100673 0.017458487
000250 96 96 c6 bc d9 f5 aa 3c 87 8e b8 3c a4 fe d9 3c
       -0.024241727 0.020869182 0.0225289 0.02661068
000260 15 b2 50 bc 62 2d d4 bc 0c 1e 1f bc 71 08 ec 3c
       -0.012737771 -0.025900546 -0.009711754 0.028812619
000270 51 55 29 3c e4 a5 41 bb cd a9 dd 3c ed 0a 0c 3c
       0.010335282 -0.0029548341 0.027058506 0.008547527
000280 dc 87 18 3c 0a ae d1 bc db 8a b3 bc 8c b9 fc 3b
       0.009309735 -0.025595684 -0.021916797 0.0077125486
000290 d0 fe 32 3c ae 9c 8e bc 7f 76 db bc de 0f 0f 3d
       0.01092501 -0.017408695 -0.026789902 0.03492724
0002a0 9c db e1 3c 5c 6e b7 bc fa 17 e3 bc b2 c8 72 bc
       0.027570538 -0.02239149 -0.027721394 -0.014818357
0002b0 66 60 b0 bb fb 9f c9 bb 27 b4 7d 3c 63 eb fc 3c
       -0.0053825853 -0.0061531044 0.015484846 0.03087396
0002c0 89 73 0e 3c 11 a7 2d 3c e5 7d fa bb 1d c6 c1 bb
       0.008694538 0.010598914 -0.0076444023 -0.0059135095
0002d0 d2 a5 8e bc 79 74 3e 3c e8 93 c6 bb aa 8e 02 3b
       -0.017413054 0.011624449 -0.0060601123 0.001992146
0002e0 e8 ff f9 bc 47 5c 0c bd f1 c6 c8 3c e2 0d 8a bc
       -0.030517533 -0.03426769 0.024508925 -0.016852323
0002f0 a2 44 cb bc 83 b1 02 3d 7f 39 01 3d 5e 06 d2 3c
       -0.024813 0.03190757 0.031548973 0.025637802
000300 2f 9f c4 3c 58 ac 86 bc 77 a7 d2 bc c5 e9 2a 3b
       0.024001686 -0.016439602 -0.02571462 0.002607928
000310 70 62 bd bc 81 28 00 bc 91 04 05 bd 98 3f 8f bc
       -0.023118228 -0.007822157 -0.032475058 -0.017486379
000320 b9 27 a7 bc 71 b6 49 3c a1 4c 1b 3c 50 fa 0f bc
       -0.020404683 0.012311564 0.009478719 -0.0087877065
000330 68 6e d4 3c 3e c3 87 bc 80 0e c0 bc 52 a6 00 3d
       0.025931552 -0.01657259 -0.023444414 0.031408615
000340 a6 5e 4a 3c 77 f1 09 bd c2 e8 aa bc c8 77 0c bd
       0.0123516675 -0.033677544 -0.02086294 -0.03429392
000350 de cc 30 3c f0 5e ca bc 92 b2 09 bd f7 ea 0c 3d
       0.010791032 -0.024703473 -0.033617564 0.034403767
000360 2e f6 04 3d 62 9a 10 3d ad 7d e6 3c 2a a0 9f bb
       0.032461338 0.03530348 0.028136099 -0.004871388
000370 4b e5 0b bd 07 2e b6 bc bf 02 9b bc a1 2d 2f bc
       -0.034154218 -0.022238744 -0.018922208 -0.010692031
000380 f1 54 b2 3c 5c 4f d9 3c ad bb 31 3b a2 65 00 3b
       0.021769019 0.0265271 0.002711992 0.0019591828
000390 2a 55 6a 3c 1c 30 56 bc a2 ed 61 3c 4e de 93 3c
       0.014302531 -0.013072994 0.013789566 0.01805034
0003a0 8f e9 ff bc be 45 c8 bc cb 0b f1 3c 72 8c b7 bc
       -0.0312393 -0.024447318 0.029424569 -0.022405837
0003b0 39 d9 ac 3c 2d 29 09 bd cc 92 9e bb 23 c1 74 3c
       0.021099674 -0.033486534 -0.004839277 0.0149386255
0003c0 e5 7b ed 3c 5b a0 a1 bc 84 7e 05 bd c4 89 c5 bc
       0.028989742 -0.019729784 -0.032591358 -0.024113543
0003d0 e7 b5 b2 bc db 35 8c 3c ea a4 3b 3c f8 98 a2 3b
       -0.021815253 0.017115524 0.011452893 0.004962083
0003e0 82 32 24 3c c5 d0 68 bc bb ee 10 3d e3 48 12 3c
       0.010021808 -0.014209931 0.03538392 0.00892851
0003f0 f8 30 f3 bc 75 5a 5a 3c a1 d4 a6 3c 84 0d 82 3c
       -0.029686436 0.013327231 0.020365061 0.015875585

bias f4 [32]
000000 8b 45 fd bc fd 7d 8c bc 81 7c 9f 3c 6a 2d b1 bc
       -0.03091695 -0.01714992 0.019468548 -0.0216281
000010 6e ff 1e bc ef 15 59 bc 5b f8 f8 bc 43 8d 0b 3c
       -0.009704454 -0.013249858 -0.030391863 0.008517566
000020 1f 43 13 3d ea 23 c1 3b 93 29 e9 3b f9 a5 13 bd
       0.035952684 0.005894174 0.0071155517 -0.036046956
000030 3e b8 de bc 05 18 3a 3c 30 5e 08 bc 75 70 80 bb
       -0.027187463 0.011358266 -0.008323237 -0.003919656
000040 19 04 12 3d d3 cf ea 3c 98 96 8f bc 5f 9c 10 bd
       0.03564844 0.028663551 -0.017527863 -0.035305377
000050 fb d3 36 bb c4 9e d1 3c 82 9e 6d bc 37 43 6c ba
       -0.0027897346 0.0255884 -0.014503123 -0.00090127013
000060 8c 08 91 3c cf 12 d8 3b d0 b0 7e 3b b1 76 0b bc
       0.01770427 0.006594039 0.0038862713 -0.008512185
000070 b6 3e 2e bc 30 1c c6 3c 09 44 97 36 1b e3 a1 bc
       -0.010635069 0.024183363 4.508071e-06 -0.019761613
